CAE_best_model.pth (torch, 140289 bytes, 12 tensors)

cnn_layer1.0.weight f4 [16, 3, 3, 3]
0	0x3d509b64	0.050929442
1	0xbe204520	-0.15651369
2	0xbe2dfee4	-0.16991764
3	0xbc5e0a2a	-0.013552228
4	0xbc552f9e	-0.013011841
5	0xbd892ae4	-0.06697634
6	0x3da5db57	0.080984764
7	0x3ddadc38	0.10686535
8	0x3e22e43b	0.15907376
9	0xbd61323e	-0.054979555
10	0x3e13a5e4	0.14418751
11	0xbe012c0c	-0.12614459
12	0xbdebebb9	-0.1151957
13	0xbe078d67	-0.13237534
14	0x3d1cab85	0.03824951
15	0x3e04272a	0.12905565
16	0xbdbe5a35	-0.092945494
17	0x3d19c367	0.037539866
18	0x3dbb5856	0.09147708
19	0xbe3215a0	-0.17391062
20	0xbdda88f6	-0.106706545
21	0x3e26bc17	0.16282688
22	0x3ce1658f	0.027514247
23	0xbe2bd07e	-0.16778752
24	0xbdf89883	-0.12138464
25	0xbdad7f09	-0.08471496
26	0x3df7f394	0.12107006
27	0x3de2c5b0	0.11072862
28	0xbbe30bef	-0.006928913
29	0x3e12e294	0.14344245
30	0x3da3250a	0.07966049
31	0x3e027209	0.12738813
32	0x3e0c11ba	0.13678637
33	0x3d32478f	0.043525275
34	0x3db5cdf8	0.08877176
35	0x3deea8d5	0.11653296
36	0xbd9f9888	-0.07792765
37	0xbe3deb65	-0.18546827
38	0x3da06e70	0.07833564
39	0x3e06aae1	0.13151123
40	0xbcd822a1	-0.0263837
41	0x3dae59fe	0.085132584
42	0x3e20c6cc	0.15700835
43	0xbbb0856b	-0.0053869984
44	0xbd3f3daf	-0.046689685
45	0xbd3f7eae	-0.04675167
46	0xbdb6aad0	-0.08919299
47	0xbe1d3bd6	-0.15354857
48	0xbe5f93b9	-0.21833695
49	0xbe428e65	-0.18999632
50	0x3d1ef79c	0.038810357
51	0xbd1d73a8	-0.038440377
52	0xbe44df4c	-0.19225806
53	0x3d89b754	0.0672442
54	0xbe255e8d	-0.1614935
55	0x3e65eb1e	0.22452971
56	0xbca7151e	-0.020395812
57	0xbe4d1906	-0.20029077
58	0x3d1812e4	0.03712739
59	0x3c57614f	0.013145759
60	0xbd9aea83	-0.07564261
61	0x3e87922f	0.26478717
62	0xbd7004ad	-0.05859821
63	0xbe614e5c	-0.22002548
64	0xbdcddc1e	-0.1005175
65	0xbd7a153d	-0.06105541
66	0xbdb4eb5e	-0.08833955
67	0x3c8ea337	0.017411811
68	0x3da848b5	0.08216993
69	0xbe06c982	-0.13162807
70	0x3e1fa063	0.15588526
71	0xbd92a696	-0.0716068
72	0x3e01fe98	0.12694776
73	0x3e49d620	0.19710588
74	0xbe0fe3e6	-0.1405178
75	0xbdd70161	-0.1049831
76	0x3e78c018	0.24292028
77	0x3e2e2c33	0.17009048
78	0xbd681f27	-0.056670334
79	0x3d34084d	0.04395323
80	0x3d7b2662	0.0613159
81	0x3db7abd3	0.0896832
82	0x3d2db0e2	0.042405017
83	0x3e0dc042	0.13842872
84	0x3e53c0e7	0.20679055
85	0x3e8050b9	0.25061586
86	0xbd93a6ae	-0.07209526
87	0x3da18aee	0.07887827
88	0x3ce51272	0.027962897
89	0x3de0a5cb	0.109691225
90	0x3c44dd7f	0.012015699
91	0x3d8e3b22	0.069448724
92	0x3db54361	0.08850742
93	0xbdfbbc15	-0.12291733
94	0xbcc9e3ba	-0.024644721
95	0xbdae45b4	-0.085093886
96	0x3e0d9b7c	0.13828844
97	0x3e680ea1	0.2266183
98	0x3d8026e0	0.06257415
99	0x3b51241e	0.0031912397
100	0x3e1d920f	0.15387748
101	0x3e1a94c4	0.15095812
102	0xbd0137fa	-0.031547524
103	0x3de8cbc1	0.11366988
104	0xbc763ce4	-0.015029166
105	0x3dba0b33	0.09084167
106	0xbde1e6b5	-0.11030332
107	0xbe19d555	-0.15022786
108	0x3de385aa	0.11109479
109	0xbda177eb	-0.07884201
110	0x3e238024	0.1596685
111	0x3e8c8b71	0.27450135
112	0xbd3140ff	-0.043274876
113	0x3e890203	0.26759347
114	0x3d8c773a	0.06858678
115	0xbe3ca653	-0.18422823
116	0x3e30e56f	0.17275022
117	0x3e1ac906	0.15115747
118	0xbe7b7d86	-0.24559602
119	0x3e38a6fa	0.18032447
120	0xbd21233f	-0.039340254
121	0xbe63afea	-0.22235075
122	0xbb1f9113	-0.0024347946
123	0x3d2b893a	0.041878916
124	0xbe979dbc	-0.2961253
125	0xbd8c2a5a	-0.068440154
126	0x3dd3e851	0.10347045
127	0x3dcd332e	0.100195274
128	0x3e690b60	0.22758245
129	0x3e68c5f4	0.22731763
130	0xbe33861b	-0.17531626
131	0xbd947fb7	-0.07250922
132	0xbdb3e48b	-0.087838255
133	0x3d0a23fd	0.033725727
134	0x3dd6b45d	0.1048362
135	0x3e44561b	0.19173472
136	0x3e597331	0.21235348
137	0x3d4b083a	0.049568392
138	0x3e0ed8ce	0.13949892
139	0x3df44af4	0.11928359
140	0xbe0fcc92	-0.14042881
141	0xbc94f1bb	-0.018181672
142	0x3c96b292	0.018395696
143	0xbd9531d6	-0.07284896
144	0xbe10b239	-0.14130487
145	0x3c789c6f	0.015174015
146	0xbe57ef8b	-0.21087472
147	0xbe483b12	-0.19553784
148	0xbd00056e	-0.03125518
149	0xbe3efc83	-0.18651013
150	0xbd232f3f	-0.03983998
151	0xbd8f367e	-0.069928154
152	0xbe6c585d	-0.23080583
153	0xbc900c9d	-0.01758414
154	0x3dba1030	0.09085119
155	0x3da5e074	0.08099452
156	0xbd58aba0	-0.05289805
157	0x3e686134	0.2269333
158	0x3d02dffa	0.031951882
159	0x3e2e1f8c	0.17004222
160	0x3e34a4f3	0.17641048
161	0xbbbe9781	-0.0058164005
162	0xbd604b13	-0.054759096
163	0x3c8c58b9	0.01713215
164	0xbe02ce6b	-0.12774055
165	0x3e222b30	0.15836787
166	0xbe32c8aa	-0.1745936
167	0xbdd2b7ff	-0.10289001
168	0x3cda40a3	0.02664215
169	0x3e2fe350	0.17176557
170	0xbe2a9239	-0.16657342
171	0x3da2d4ff	0.07950782
172	0xbe1aecce	-0.15129396
173	0x3cb843ce	0.02249327
174	0x3cd5ee18	0.026114509
175	0xbde7bca9	-0.11315281
176	0xbd9af732	-0.0756668
177	0xbd8af2e5	-0.0678461
178	0xbdef12c1	-0.11673499
179	0xbdd4bed2	-0.103879586
180	0x3de8eb49	0.11373002
181	0x3cbcb051	0.023033293
182	0xbe130c7e	-0.14360234
183	0xbd96f8c8	-0.0737167
184	0xbe1b7cd7	-0.15184341
185	0xbe0eac54	-0.13932925
186	0xbde76bc4	-0.112998515
187	0xbe1f488c	-0.15555018
188	0x3df718e0	0.120652914
189	0x3c134511	0.008988635
190	0x3c006388	0.00783623
191	0xbc936dba	-0.017996658
192	0xbe0be490	-0.13661408
193	0x3c96c0e1	0.018402519
194	0xbdd1a794	-0.10237041
195	0x3d07c817	0.033149805
196	0x3c7e9084	0.015537385
197	0xbe100b12	-0.14066723
198	0xbd6ba142	-0.057526834
199	0xbdd76396	-0.105170414
200	0x3e31e050	0.17370725
201	0x3e2988ce	0.16556093
202	0xbcf91292	-0.030404363
203	0x3e2af646	0.16695508
204	0xbdc5a2ce	-0.09650193
205	0x3cf77796	0.03020839
206	0xbd1acabc	-0.037791
207	0x3dddc706	0.10828976
208	0xbdf7bdcd	-0.120967485
209	0xbdc4ef9a	-0.09616013
210	0x3c9428bd	0.018085832
211	0xbe3e996c	-0.18613213
212	0xbe0e2e38	-0.13884819
213	0x3da3e4e3	0.08002641
214	0xbe403279	-0.18769254
215	0x3e1107a9	0.14163078
216	0xbce64a41	-0.028111579
217	0x3be035a8	0.006842334
218	0xbe13ff13	-0.14452772
219	0x3d96a2cc	0.0735527
220	0xbdc5142b	-0.09622987
221	0x3dee4846	0.11634879
222	0x3e0b868c	0.13625544
223	0x3bad0aa3	0.005280809
224	0x3d9f5986	0.07780747
225	0x3e3e3414	0.18574554
226	0x3d6ba16b	0.057526987
227	0xbd3df193	-0.04637296
228	0x3e085c0f	0.13316368
229	0x3e631a7c	0.22178072
230	0xbc457bfb	-0.012053485
231	0x3df7766c	0.12083134
232	0xbbc6ac17	-0.006062995
233	0x3e369a85	0.17832382
234	0x3d468ca4	0.04847397
235	0xbdec338a	-0.11533268
236	0x3e2f0048	0.17089951
237	0xbdb23efe	-0.08703421
238	0xbb8a9342	-0.0042289803
239	0x3e1c0b59	0.15238704
240	0xbdb294db	-0.08719798
241	0x3e3f1dd1	0.18663718
242	0x3de90f2d	0.11379848
243	0xbd0542dc	-0.032534465
244	0x3e18444a	0.148698
245	0x3db1e64e	0.08686505
246	0x3da750bd	0.081696965
247	0x3b02fc61	0.0019986855
248	0xbc1d2701	-0.009591819
249	0xbe89c681	-0.2690926
250	0xbdd7984c	-0.10527095
251	0xbdd12000	-0.10211182
252	0x3e09b7c8	0.13449013
253	0x3e3133c1	0.17304899
254	0x3c49f5b2	0.012326645
255	0x3e1b1e7c	0.15148348

cnn_layer1.0.bias f4 [16]
0	0x3eae3570	0.34025145
1	0x3e0a757a	0.13521376
2	0x3cea9d35	0.028639415
3	0xbe5d7c1d	-0.21629377
4	0x3d5c4ef9	0.05378625
5	0x3db0fdd8	0.08642167
6	0x3cddd3db	0.02707856
7	0xbdfad1a3	-0.12247016
8	0xbea6ecb4	-0.32602465
9	0xbe2c98f5	-0.16855223
10	0xbe8500fb	-0.2597731
11	0x3eb0463b	0.34428582
12	0xbd930509	-0.07178695
13	0xbd77f03a	-0.060531832
14	0x3e8ee73f	0.27910802
15	0x3e8a3a8f	0.26997802

cnn_layer2.0.weight f4 [32, 16, 3, 3]
0	0x3e891608	0.2677462
1	0x3e4ed7d6	0.20199522
2	0x3e116add	0.14200921
3	0x3f07b54b	0.53011006
4	0x3ee83a05	0.45356765
5	0x3ead4b8c	0.338467
6	0x3eaad6ea	0.3336709
7	0x3ead569c	0.3385514
8	0x3e3702a1	0.17872097
9	0x3e501b30	0.20322871
10	0x3d8eee66	0.06979065
11	0x3e0f4b12	0.13993481
12	0x3e54206d	0.20715494
13	0x3dca7a5b	0.09886619
14	0x3e2cfd43	0.16893487
15	0x3e8420e9	0.25806358
16	0x3e610d7e	0.21977803
17	0x3e828d3c	0.25498378
18	0xbdb7ba25	-0.08971051
19	0xbe163074	-0.14666921
20	0x3d627112	0.055283614
21	0xbe74301a	-0.23846474
22	0xbe6fb3ae	-0.23408386
23	0x3e4b0401	0.19825746
24	0xbc2618df	-0.010137766
25	0xbde9d418	-0.11417407
26	0x3e812235	0.2522141
27	0xbcfb6f1f	-0.030692635
28	0xbdc9389a	-0.09825249
29	0x3def8f71	0.11697281
30	0x3c040174	0.008056987
31	0xbd96416e	-0.073366985
32	0xbd31f041	-0.043442015
33	0x3c486eb4	0.012233425
34	0xbe1193d3	-0.14216547
35	0x3d104627	0.035223152
36	0x3de376fc	0.11106679
37	0x3df54bf2	0.11977376
38	0x3e64c4ad	0.22340651
39	0xbda92670	-0.082592845
40	0x3b56f1e8	0.0032797996
41	0xbccf4292	-0.025300298
42	0xbd924121	-0.071413286
43	0xbda6023e	-0.081058964
44	0x3d1f0d9e	0.038831346
45	0x3e08bea8	0.1335398
46	0x3c0a477c	0.008439895
47	0x3d37bf05	0.044859905
48	0xbd0982b7	-0.033571925
49	0xbc7a04d8	-0.015259944
50	0xbc699b78	-0.014258258
51	0xbcc7c337	-0.024385078
52	0xbd84a48b	-0.064766966
53	0x3dae7a45	0.08519415
54	0xbcce59b4	-0.025189258
55	0x3da9297a	0.08259864
56	0x3d923e90	0.07140839
57	0x3d3f1071	0.04664654
58	0xbd537055	-0.0516208
59	0xbd8639e9	-0.06554014
60	0x3b003344	0.0019561807
61	0xbc691568	-0.014226295
62	0x3d48c6cb	0.04901771
63	0xbd88038d	-0.06641302
64	0xbd0716b2	-0.03298063
65	0xbd363f17	-0.04449376
66	0x3d1ca39d	0.03824197
67	0xbd7a225b	-0.06106792
68	0xbd97cd00	-0.074121475
69	0xbda7d745	-0.08195356
70	0xbd8a5fe2	-0.067565694
71	0xbcdea40e	-0.027177837
72	0xbe96ce0a	-0.2945407
73	0xbe3d5fc8	-0.18493569
74	0xbdb083c1	-0.0861888
75	0xbeb3353d	-0.35001555
76	0xbe9c8236	-0.30568093
77	0xbe8919bb	-0.26777443
78	0xbe5d160c	-0.21590441
79	0xbe862c46	-0.26205653
80	0xbddb6c88	-0.1071406
81	0x3dadba86	0.08482842
82	0xbd24f64a	-0.040273942
83	0x3b9947f1	0.0046777655
84	0xbd9f36fe	-0.07774161
85	0xbd90f797	-0.07078474
86	0x3ce95dc4	0.028487094
87	0x3c3b1d49	0.011420556
88	0xbdf3eb56	-0.11910121
89	0xbd984a6b	-0.07436069
90	0xbdb28c91	-0.08718217
91	0x3c8e8415	0.017396966
92	0x3d68ef1b	0.056868654
93	0xbe09f59c	-0.13472599
94	0xbe264370	-0.16236663
95	0xbd259152	-0.04042179
96	0xbd7389f6	-0.05945774
97	0xbdc6abfd	-0.09700773
98	0x3d33a45b	0.043857913
99	0x3dd67782	0.10472013
100	0x3b4a0a45	0.0030828875
101	0x3e2da655	0.16957982
102	0x3da4ca5b	0.08046409
103	0xbd74d6cb	-0.059775155
104	0x3ddbcee5	0.107328214
105	0x3dfa24ae	0.12214027
106	0x3cd7b7d6	0.026332777
107	0x3e014154	0.12622577
108	0x3e524bd5	0.2053674
109	0x3d5a04e0	0.053227305
110	0x3e2ce4d0	0.1688416
111	0x3b5675ba	0.003272398
112	0xbc5e3ee3	-0.013564798
113	0xb9bbff7d	-0.00035857773
114	0x3dd474f3	0.10373869
115	0xbd813b27	-0.063101105
116	0x3d2e8184	0.042603984
117	0x3d289566	0.041158102
118	0xbdce7981	-0.10081769
119	0x3df325b4	0.11872426
120	0xbdecdbbc	-0.115653485
121	0xbe52b5a7	-0.20577107
122	0xbd887709	-0.06663329
123	0xbce598c6	-0.02802695
124	0xbd3044d8	-0.043034405
125	0xbce183f7	-0.027528746
126	0x3e40c261	0.1882415
127	0x3d261458	0.040546745
128	0x3d3795d1	0.04482061
129	0x3d6b60c6	0.057465337
130	0x3da258ad	0.0792707
131	0x3ce745a4	0.02823145
132	0x3e149be6	0.14512596
133	0x3bd77e41	0.00657633
134	0x3d8dc5b9	0.06922478
135	0x3e99af3d	0.3001651
136	0x3e423be8	0.18968165
137	0x3e30124c	0.1719448
138	0x3dc70a3d	0.0971875
139	0x3dea3619	0.114360996
140	0x3e5ff294	0.2186988
141	0x3d2990e1	0.041397933
142	0x3d954625	0.0728877
143	0x3e213fdb	0.15747015
144	0x3e8c6808	0.2742312
145	0x3ebb1538	0.36539626
146	0x3e645ae3	0.22300296
147	0x3e799149	0.24371828
148	0x3ec3528b	0.38148913
149	0x3dfe5d87	0.12420183
150	0x3d27f2cb	0.04100303
151	0x3e008ce8	0.12553751
152	0x3e0d353c	0.13789839
153	0x3deeb5fd	0.11655805
154	0x3e0ae16a	0.13562551
155	0x3dbec369	0.09314615
156	0x3d3f3b71	0.046687547
157	0x3dbdb2af	0.09262597
158	0x3e6066ef	0.21914266
159	0x3d9151e7	0.070957
160	0x3e2e9ff8	0.1705321
161	0x3e349d99	0.17638244
162	0xbe509fcb	-0.20373456
163	0xbe4cfd18	-0.20018423
164	0xbe50c210	-0.20386529
165	0xbdccdc64	-0.10002974
166	0xbe8d32a8	-0.2757771
167	0xbe92f47c	-0.28702152
168	0x3cf45611	0.029826196
169	0xbdda25c6	-0.10651736
170	0xbe351442	-0.17683509
171	0xbbe6422d	-0.0070269317
172	0xbdf278e2	-0.11839463
173	0xbdac5052	-0.084137574
174	0xbdf34439	-0.11878247
175	0xbc92e8e2	-0.017933313
176	0xbcae5f61	-0.021285715
177	0x3b641757	0.003480395
178	0x3d5e99b3	0.054345798
179	0xbb07a565	-0.0020697948
180	0xbbd4b570	-0.0064913556
181	0x3d9d851c	0.07691404
182	0x3e0109b4	0.12601358
183	0x3c7f79e0	0.015593022
184	0x3aa48d89	0.0012554388
185	0x3d7114fd	0.058857907
186	0x3e0e266b	0.13881843
187	0x3de96334	0.113958746
188	0x3d4f9961	0.050683383
189	0xbd192a22	-0.037393697
190	0xbe28041c	-0.16407818
191	0xbe04cb33	-0.1296814
192	0xbe1b69e9	-0.1517712
193	0xbe9a09e8	-0.30085683
194	0xbe28f8f7	-0.16501223
195	0xbc99ba70	-0.018765658
196	0xbe00769e	-0.12545249
197	0x3c11fad7	0.008909903
198	0x3d2457b0	0.040122688
199	0xbd470c28	-0.048595577
200	0x3c128bc0	0.008944452
201	0x3d4b931a	0.049700834
202	0xbd06c790	-0.03290516
203	0xbd97d712	-0.07414068
204	0x3d5ba912	0.053628035
205	0x3bbc9cc0	0.0057559907
206	0xbc9453cc	-0.018106364
207	0x3c653e40	0.013991892
208	0xbda058e8	-0.078294575
209	0x3d832521	0.06403566
210	0x3d887245	0.0666242
211	0xbc87f72c	-0.016597353
212	0xbd9754a8	-0.07389194
213	0x3b664ae0	0.0035139844
214	0xbd03d943	-0.03218962
215	0x3ce59ebc	0.028029792
216	0xbde71449	-0.11283166
217	0xbc0c7ecd	-0.008575154
218	0x3d2962e9	0.041354094
219	0x3cb6cbeb	0.022314033
220	0xbd3475ba	-0.044057585
221	0xbd36dde2	-0.044645198
222	0x3cbe7dd3	0.023253357
223	0x3d37d3ea	0.04487983
224	0x3d97d27d	0.07413194
225	0xbdd3604f	-0.10321104
226	0xbd8af30b	-0.06784638
227	0xbda52a83	-0.08064749
228	0xbdb37bae	-0.087638244
229	0x3c686f9c	0.014186766
230	0x3db83c8b	0.08995923
231	0xbd5c2cef	-0.05375379
232	0x3ce0105b	0.027351549
233	0x3c45df5c	0.012077179
234	0xbe3b81ee	-0.18311283
235	0xbe628294	-0.22120124
236	0xbe073b67	-0.13206254
237	0xbe604c06	-0.21904
238	0xbe3ebe04	-0.18627173
239	0xbe15e5a1	-0.14638378
240	0xbe0f31e1	-0.13983871
241	0xbe3b3741	-0.18282796
242	0xbd20c3d5	-0.03924926
243	0x3d1dacf6	0.038495027
244	0x3c2892c0	0.010288894
245	0x3d70f7cd	0.05883007
246	0xbb9f678c	-0.0048646387
247	0x3da27c63	0.07933881
248	0xbcb7a674	-0.022418238
249	0x3d625815	0.055259783
250	0x3dc587cb	0.09645041
251	0x3d2e824a	0.042604722
252	0xbddf9c84	-0.10918525
253	0xbe0b76db	-0.13619559
254	0xbc4262e4	-0.011864398
255	0xbb196398	-0.002340531

cnn_layer2.0.bias f4 [32]
0	0x3eeec1b9	0.46632174
1	0x3e37771f	0.17916535
2	0xbc452252	-0.012032108
3	0x3e85ee6f	0.26158473
4	0xbe306178	-0.17224681
5	0x3e771929	0.24130692
6	0xbd94d51c	-0.0726721
7	0x3d26dd70	0.040738523
8	0x3e961eba	0.29320318
9	0xbdd20460	-0.10254741
10	0x3a588fcc	0.00082611735
11	0xbe27fdf4	-0.16405469
12	0x3d82006a	0.06347735
13	0xbe52abae	-0.20573303
14	0xbd87b333	-0.066259764
15	0x3e76d1af	0.24103425
16	0x3c8b4dc0	0.017004848
17	0x3e5daf13	0.21648817
18	0xbdb874a6	-0.09006624
19	0x3c816f9e	0.015800294
20	0xbdb1e4b8	-0.08686203
21	0x3a0d9352	0.00054006756
22	0xbdf38ff0	-0.11892688
23	0x3e3421b6	0.17590985
24	0xbcd99dcd	-0.026564503
25	0x3d1efd9c	0.03881608
26	0xbe387d71	-0.18016602
27	0x3e245e2a	0.16051546
28	0xbd883da1	-0.0665238
29	0x3e64742b	0.2230994
30	0xbe13ab32	-0.14420775
31	0x3e894241	0.2680836

cnn_layer3.0.weight f4 [64, 32, 3, 3]
0	0x3d14c9c1	0.03632522
1	0x3ea64b3b	0.3247927
2	0xbcf4e2ee	-0.029893365
3	0xbd497d81	-0.049191955
4	0xbe002fa4	-0.12518173
5	0xbce90ae8	-0.028447583
6	0x3e21452f	0.15749048
7	0xbe07dd76	-0.13268074
8	0xbdd6e5b7	-0.104930334
9	0xbdce2644	-0.10065892
10	0xbe666a2f	-0.22501443
11	0xbe91ea2c	-0.2849897
12	0xbd51b4c6	-0.05119779
13	0xbdf0810f	-0.11743366
14	0x3e4be1b9	0.19910325
15	0xbdea9862	-0.11454846
16	0xbd65bff1	-0.056091253
17	0x3deaa5f4	0.11457434
18	0xbd6c49f0	-0.0576877
19	0x3c9a6806	0.01884843
20	0x3c976992	0.018482957
21	0x3b40c430	0.0029413812
22	0xbbfee812	-0.00777913
23	0xba87e512	-0.0010367951
24	0x3d422187	0.047395255
25	0x3cd342ba	0.025788654
26	0x3caf4950	0.021397263
27	0x3daf94da	0.08573313
28	0x3e8f2588	0.27958322
29	0x3c5ae5eb	0.013360481
30	0x3e05a879	0.13052548
31	0xbd38aa7a	-0.045084454
32	0x3e0cd246	0.13752088
33	0xbe5fdaef	-0.2186086
34	0xbe48e2ca	-0.19617763
35	0x3ed06cfb	0.40708145
36	0xbe8d610e	-0.2761311
37	0x3c607d5f	0.013701766
38	0x3f023d32	0.50874627
39	0x3f146519	0.5796676
40	0x3f4dc9c0	0.8038597
41	0x3e9d221d	0.3069009
42	0x3ed04c45	0.4068319
43	0x3e8b8d22	0.27256113
44	0xbf037693	-0.51352805
45	0xbb5d4c40	-0.0033767372
46	0xbdfc3a0a	-0.123157576
47	0xbe2e965a	-0.17049542
48	0x3c11fa4f	0.008909776
49	0xbb1d9afb	-0.0024048674
50	0xbc423619	-0.011853718
51	0x3dece2cf	0.11566698
52	0x3e9215cd	0.28532258
53	0x3e0170de	0.12640712
54	0xbc88105d	-0.016609365
55	0x3d65a47a	0.05606506
56	0xbd075401	-0.033039097
57	0x3cfbd6ef	0.030742137
58	0x3c696b9e	0.014246849
59	0x3d5617c7	0.05226877
60	0x3d430d44	0.047620073
61	0xbd234c22	-0.039867528
62	0xbd3b6c19	-0.045757387
63	0xbd0f94b9	-0.035053942
64	0x3d6b5531	0.05745429
65	0xbbd74460	-0.00656943
66	0x3d5472e9	0.0518674
67	0x3cb7d5ca	0.02244081
68	0xbce3f9a6	-0.027829003
69	0x3c55c594	0.013047595
70	0x3d70d171	0.05879349
71	0xbcf16e33	-0.029471492
72	0x3e3c5bba	0.18394366
73	0x3e759927	0.23984204
74	0x3e6c1bdc	0.23057503
75	0x3d4888da	0.048958637
76	0x3df48bdc	0.119407386
77	0x3d207437	0.03917333
78	0x3e960c9d	0.29306498
79	0x3e65aaa6	0.22428378
80	0x3e476e3d	0.19475646
81	0xbd7635a9	-0.060109768
82	0xbdd0897d	-0.10182474
83	0xbdf340e5	-0.11877612
84	0x3d20de59	0.039274547
85	0xbd77992b	-0.060448807
86	0x3e926a53	0.28596744
87	0x3ea77921	0.32709602
88	0x3e9ee6f2	0.31035572
89	0x3e23eb63	0.16007762
90	0x3d2eb3da	0.04265199
91	0x3d81c868	0.063370526
92	0xbc13fb10	-0.009032026
93	0xbd21a8d4	-0.039467648
94	0x3acd5535	0.0015665652
95	0x3d001605	0.031271
96	0xbc86be44	-0.016448148
97	0xbcc9763f	-0.024592517
98	0x3d572101	0.05252171
99	0xbcdbf5cf	-0.02685061
100	0xbe8117bb	-0.25213417
101	0xbd62dd04	-0.05538656
102	0xbe3b6168	-0.18298876
103	0xbe351e07	-0.17687236
104	0xbe88efb7	-0.26745388
105	0x3e1c42ce	0.15259859
106	0x3dfb22f4	0.12262526
107	0x3d62e46b	0.055393618
108	0xbdfe773d	-0.12425087
109	0x3d67dc09	0.056606326
110	0x3e2b2f1a	0.16717187
111	0x3e040d8c	0.12895793
112	0xbf952316	-1.1651332
113	0xbfad07fd	-1.3518063
114	0x3f22eb59	0.6364036
115	0xbf006127	-0.5014824
116	0xbe90ca78	-0.2827947
117	0x3e64a8fa	0.22330084
118	0x3e213240	0.15741825
119	0xbe190757	-0.14944206
120	0xbe6e4c8c	-0.23271388
121	0xbe7440ce	-0.23852846
122	0xbea2340d	-0.31680337
123	0x3e9704d1	0.29495862
124	0xbe4e9d97	-0.20177303
125	0xbe0478a5	-0.12936647
126	0x3cb0efc6	0.021598708
127	0x3ca85f66	0.020553302
128	0x39e13300	0.00042953342
129	0x3d0535ff	0.032522198
130	0xbd31fcd4	-0.043454006
131	0x3d57d503	0.05269338
132	0x3bffafd8	0.0078029446
133	0x3d31ee43	0.043440115
134	0xb9c45c80	-0.0003745295
135	0x3cd1f2b2	0.025628421
136	0x3dab634c	0.08368549
137	0xbd31c7f7	-0.043403592
138	0x3d9911c7	0.07474094
139	0xbd9e903d	-0.07742355
140	0xbc6b6c1f	-0.01436904
141	0x3c280c2b	0.010256807
142	0x3cec474c	0.02884259
143	0x3c391a66	0.011297798
144	0x39a87200	0.00032128394
145	0xbd3bafca	-0.045821942
146	0xbd639ac0	-0.055567503
147	0xbcfc3559	-0.030787157
148	0x3c82cd7c	0.015967123
149	0xbd1a696a	-0.037698187
150	0x3d3fa25f	0.04678571
151	0x3d1bc725	0.038031716
152	0x3ca42c3e	0.020040628
153	0xbe183c88	-0.14866841
154	0xbdc46be6	-0.095908925
155	0xbe39a431	-0.1812904
156	0xbd8ed9ec	-0.06975159
157	0xbd328c71	-0.043590967
158	0xbdbb3e82	-0.09142782
159	0x3d3a08c8	0.04541853
160	0x3e118a77	0.14212976
161	0x3d7c8a62	0.06165541
162	0xbe19e2e6	-0.15027961
163	0xbe70feb4	-0.23534662
164	0xbdeaf284	-0.114720374
165	0xbe88f20b	-0.26747164
166	0xbe687b2e	-0.2270324
167	0xbe6ba8f9	-0.23013677
168	0x3d596ebc	0.05308412
169	0xbe467669	-0.19381107
170	0xbdab4dbf	-0.08364438
171	0xbb266aa0	-0.0025393143
172	0xbcfcba81	-0.03085065
173	0x3ca903ea	0.02063175
174	0x3d1a5031	0.037674133
175	0xbd2199a3	-0.03945316
176	0x3d545863	0.051842105
177	0xbd49dc01	-0.049282078
178	0x3d0f683d	0.03501152
179	0xbd4fcccb	-0.050732415
180	0x3cc477bd	0.023982877
181	0xbe4a64c6	-0.19765005
182	0x3dd9ac5a	0.106285766
183	0x3bf00115	0.0073243477
184	0xbd1e5021	-0.038650636
185	0xbdae413a	-0.08508535
186	0xbd2ff345	-0.04295661
187	0x3e6f2933	0.2335556
188	0xbdf1b5d1	-0.11802257
189	0x3ea48245	0.32130638
190	0xbe691608	-0.2276231
191	0xbe602d2b	-0.2189223
192	0x3ebfb2f9	0.37441233
193	0x3ed8d5f9	0.42350748
194	0xbdd6f51f	-0.10495972
195	0x3ea0d0f8	0.3140943
196	0x3ed97a08	0.42475915
197	0x3d82940e	0.063758954
198	0x3e38a499	0.18031539
199	0x3e0f8050	0.14013791
200	0xbe868cd6	-0.26279324
201	0x3e6bd05d	0.23028703
202	0xbcea450e	-0.028597381
203	0x3dfba9cc	0.122882456
204	0x3e9a3388	0.3011744
205	0x3b177ff4	0.0023117037
206	0x3c6b9886	0.014379626
207	0x3e19cf2f	0.1502044
208	0x3d20eb2c	0.039286777
209	0x3dce4a39	0.100727506
210	0x3d2cc4d7	0.04217991
211	0x3d87a1fe	0.066226944
212	0x3d8ff3cf	0.07028925
213	0x3ce696f7	0.028148158
214	0x3dfc7d91	0.123286374
215	0x3e4dc7b7	0.20095716
216	0xbdd7961b	-0.10526677
217	0x3d968f54	0.073515564
218	0x3d0b21b8	0.033967704
219	0x3e5edf8b	0.21764962
220	0xbd110523	-0.03540529
221	0xbdafc2eb	-0.085820995
222	0xbd9c3b38	-0.076284826
223	0xbe658f46	-0.22417936
224	0xbe0b8396	-0.13624415
225	0x3e74d22f	0.23908304
226	0x3e8aaae7	0.27083513
227	0x3ec9788a	0.39349777
228	0xbf7f87b6	-0.99816453
229	0xbe05e6db	-0.13076346
230	0xbf896cd1	-1.0736333
231	0xbe7746d4	-0.24148113
232	0xbf047671	-0.5174323
233	0x3fa9c554	1.3263345
234	0xbdabd752	-0.083906785
235	0xbe04b8b1	-0.12961079
236	0xbe0fa3a4	-0.14027268
237	0xbeffb97b	-0.49946198
238	0xbed9b876	-0.42523545
239	0xbea0d0ac	-0.31409204
240	0xbe4f10bb	-0.20221226
241	0xbea4b04d	-0.32165757
242	0xbe71c873	-0.23611622
243	0x3e0d2977	0.13785349
244	0x3e9cf5c2	0.30656248
245	0x3ea8e01e	0.32983488
246	0x3eb156f0	0.3463664
247	0x3d1dcf8d	0.038528014
248	0x3e92e339	0.28688982
249	0x3df23aa0	0.11827588
250	0x3d164bb5	0.036693294
251	0x3dcbd74f	0.09953176
252	0xbde57855	-0.11204592
253	0xbd7c8e35	-0.061659057
254	0x3e387587	0.18013583
255	0xbcc388a8	-0.023868874

cnn_layer3.0.bias f4 [64]
0	0x3dac8b6f	0.08425032
1	0xbb525335	-0.0032093052
2	0xbcd15db1	-0.02555737
3	0xbbf218da	-0.0073882164
4	0x3e4af5a7	0.19820271
5	0xbb967e31	-0.00459268
6	0x3e95c61f	0.29252717
7	0x3a8284a0	0.0009957738
8	0xbc835130	-0.016029924
9	0xbd1a38c1	-0.03765178
10	0x3d1b1b3b	0.037867766
11	0x3e5635ad	0.20918913
12	0xbd8bc8f5	-0.06825439
13	0xbd84cd76	-0.06484501
14	0xbd054d4c	-0.03254442
15	0x3d38a249	0.045076642
16	0xbd663255	-0.056200344
17	0xbd432950	-0.04764682
18	0xbd0a20c0	-0.03372264
19	0xbcab60f7	-0.02092026
20	0xbde7f8ef	-0.11326777
21	0xbd70e529	-0.058812294
22	0xbcafb521	-0.021448674
23	0xbdcc895e	-0.09987138
24	0x3c5c1f0e	0.013435138
25	0xbd89014e	-0.06689702
26	0xbd552fff	-0.052047726
27	0x3b496d17	0.0030735189
28	0x3c20f20c	0.0098233335
29	0x3d1791ce	0.037004285
30	0xbda9ddd0	-0.082942605
31	0xbd9c8f4c	-0.07644519
32	0xbb891129	-0.004182954
33	0x3e886d78	0.26646018
34	0xbd1bc56a	-0.038030066
35	0x3dd7a13b	0.10528799
36	0xbc3c47e9	-0.011491754
37	0xbd2ecb07	-0.04267409
38	0xbd88f095	-0.066865124
39	0xbd23bdec	-0.039976045
40	0xbd19eee2	-0.037581332
41	0xbc0fa662	-0.008767696
42	0x3e76d5b6	0.24104962
43	0xbdc15b86	-0.09441285
44	0xbde99933	-0.114061736
45	0x3e89be8b	0.26903185
46	0xbd85d2ac	-0.06534323
47	0xbd6ffa6c	-0.05858843
48	0xbdf10280	-0.11768055
49	0xbd971796	-0.073775455
50	0x3e80971e	0.25115293
51	0xbd7c2c46	-0.06156566
52	0x3c81f2e5	0.015862891
53	0x3e81fa3b	0.25386223
54	0x3d02604c	0.031830117
55	0xbb05fb71	-0.002044406
56	0xbd1ce5c1	-0.038305048
57	0xb98c18bf	-0.00026721318
58	0x3c24b259	0.010052287
59	0xbd4e847d	-0.05041932
60	0x3c5f788a	0.013639579
61	0x3eba588e	0.36395687
62	0x3cd12be4	0.025533624
63	0xbb2a48e3	-0.0025983385

tran_cnn_layer1.0.weight f4 [64, 32, 2, 2]
0	0xbe0dac19	-0.13835181
1	0x3e965a59	0.29365805
2	0x3f146d0e	0.57978904
3	0x3f5ff062	0.8747617
4	0x3b9805d4	0.0046393666
5	0xbf199e16	-0.60006845
6	0x3d8d246e	0.06891714
7	0xbdcb8201	-0.09936906
8	0x3e811148	0.25208497
9	0x3df46287	0.11932855
10	0x3ea1e928	0.31623197
11	0x3ed41a51	0.41426328
12	0xbd6b45f8	-0.057439774
13	0x3d97cdc4	0.074122936
14	0xbe941ef6	-0.2892987
15	0x3d2f132d	0.042742897
16	0xbe7bbe57	-0.24584328
17	0x3e728ab2	0.2368572
18	0x3e24ec84	0.16105849
19	0x3e37ac8f	0.1793692
20	0xbe7cc5ee	-0.24684879
21	0xbdbf0c06	-0.09328465
22	0xbd24ac07	-0.04020312
23	0xbe103b9a	-0.14085236
24	0x3f195b1f	0.59904665
25	0x3d5ca879	0.053871606
26	0xbdb17ed4	-0.08666769
27	0x3b8e2182	0.0043374905
28	0x3d38a62a	0.04508034
29	0xbe49aee6	-0.19695625
30	0xbd712bf0	-0.058879793
31	0xbea9e435	-0.3318192
32	0xbdc862a0	-0.09784436
33	0xbe54755f	-0.20747899
34	0xbd312b14	-0.043253973
35	0x3d4c36cd	0.04985695
36	0xbdb7e322	-0.08978869
37	0x3e0cad59	0.13738002
38	0xbd4d9eb8	-0.050200194
39	0xbce942e0	-0.028474271
40	0xbecf4a3c	-0.40486324
41	0xbdb114f1	-0.086465724
42	0xbd8477b0	-0.06468141
43	0x3d051da3	0.032498967
44	0x3cba7884	0.022762544
45	0xbe951301	-0.2911606
46	0x3d80499d	0.062640406
47	0xbe0d01d9	-0.13770236
48	0xbe28e176	-0.16492257
49	0xbcdd354e	-0.027002957
50	0x3df1623f	0.11786317
51	0x3c42acd8	0.0118820295
52	0x3e04a7b7	0.12954603
53	0x3d5a13de	0.053241603
54	0x3e84c291	0.25929692
55	0xbcc7fdf1	-0.02441308
56	0x3e66eb0f	0.22550605
57	0xbe5b544c	-0.21418875
58	0xbc59fd9d	-0.013305095
59	0x3d20eada	0.039286472
60	0x3e809f1d	0.25121394
61	0x3ec69d40	0.38791847
62	0x3e2c939e	0.16853186
63	0x3e4e7539	0.20161904
64	0xbe3ddd75	-0.1854151
65	0x3e44b2bf	0.19208811
66	0x3f15300f	0.58276457
67	0x3effd6f3	0.4996868
68	0x3e39630c	0.1810419
69	0x3e8763a2	0.264432
70	0xbeca3fd2	-0.39501816
71	0xbf02a5c2	-0.51034176
72	0xbd820db0	-0.06350267
73	0x3d59ffc7	0.053222444
74	0xbcc5d1d0	-0.024147898
75	0x3d22d48c	0.03975348
76	0x3ddd1b28	0.10796195
77	0x3d67154e	0.056416802
78	0xbe134af2	-0.14384058
79	0x3c340eb0	0.01098983
80	0x3d30c4ae	0.04315632
81	0x3cb067f2	0.02153394
82	0xbe2f332d	-0.17109366
83	0x3c8b5c72	0.017011855
84	0xbdbd1e80	-0.09234333
85	0x3ea386a2	0.31938654
86	0x3e42ec5a	0.19035473
87	0x3d912ae7	0.07088261
88	0x3c345763	0.011007163
89	0x3e895a79	0.26826838
90	0x3c327913	0.010893124
91	0x3e622770	0.22085357
92	0x3dec27d7	0.11531036
93	0x3e267576	0.16255745
94	0xbcc7b2ba	-0.024377216
95	0xbe49f219	-0.19721259
96	0xbe5629fd	-0.20914455
97	0x3da48553	0.08033242
98	0xbc5494ba	-0.012974912
99	0xbf14bf9a	-0.5810486
100	0x3e929a7a	0.2863348
101	0x3eb048b6	0.34430474
102	0x3dd71b34	0.105032355
103	0x3e844cd0	0.25839853
104	0xbb98ee48	-0.004667077
105	0xbe618fc5	-0.220275
106	0x3ef4c027	0.4780285
107	0xbd3e3a41	-0.046442274
108	0xbe1929a5	-0.14957292
109	0xbd95ee34	-0.07320824
110	0x3d719311	0.058978144
111	0x3d50e703	0.05100156
112	0x3e9725dc	0.29521072
113	0x3d63936c	0.055560514
114	0x3e25d248	0.16193497
115	0x3cb27f8f	0.02178934
116	0x3c29f60b	0.010373603
117	0xbc172d3d	-0.009227094
118	0xbc96705e	-0.018364128
119	0x3e6a1328	0.2285887
120	0xbd5dbda9	-0.054135952
121	0x3e30435c	0.17213196
122	0xbef703d1	-0.482451
123	0xbd6f96ba	-0.058493353
124	0x3e259140	0.1616869
125	0x3e9a2e3f	0.30113408
126	0xbeb031b6	-0.34412926
127	0x3e370b45	0.17875393
128	0xbd967fd9	-0.07348604
129	0xbe208167	-0.15674363
130	0x3e5b5c7a	0.21421996
131	0x3e7569cd	0.23966141
132	0x3c7a7661	0.015287013
133	0x3e774902	0.24148944
134	0x3ce98b94	0.028508939
135	0xbc07ac84	-0.008280877
136	0xbc0413eb	-0.008061389
137	0xbe0b77b7	-0.13619886
138	0x3cf07f0a	0.029357452
139	0xbf158b42	-0.58415616
140	0x3c9a48bc	0.01883351
141	0xbe3e7f2e	-0.18603203
142	0x3e726dd5	0.2367471
143	0xbe46c35c	-0.19410461
144	0xbe6e20f3	-0.23254757
145	0x3e3556bc	0.17708868
146	0xbdcd02ed	-0.10010324
147	0x3e59c219	0.21265449
148	0x3eb5a5f9	0.3547819
149	0xbdf20838	-0.11817974
150	0x3dbdcd87	0.09267717
151	0x3dc2be8b	0.095089994
152	0x3b1c734f	0.002387244
153	0xbd9afff3	-0.0756835
154	0x3e5a598e	0.21323225
155	0xbd83c0b7	-0.06433242
156	0x3d279fb9	0.040923808
157	0xbd97d774	-0.07414141
158	0xbdbfcc52	-0.09365143
159	0x3ee8a0a3	0.45435056
160	0x3d8dff08	0.06933409
161	0x3c5022ec	0.0127036385
162	0x3d38da22	0.045129903
163	0x3f18d672	0.5970222
164	0x3d43d4a2	0.047810204
165	0xbd83f780	-0.06443691
166	0x3ea51def	0.322494
167	0x3e0f0a36	0.13968739
168	0x3ecd23dc	0.4006642
169	0xbcf60417	-0.030031247
170	0xbbb70118	-0.005584847
171	0xbe974fa3	-0.29552945
172	0x3cd428fc	0.02589845
173	0xbdcee573	-0.10102358
174	0xbd9d7bf0	-0.07689655
175	0xbf3c3ff3	-0.7353508
176	0xbc06f012	-0.008235948
177	0xbe9ebf86	-0.31005496
178	0x3d4f7e89	0.050657783
179	0xbe097a5a	-0.1342558
180	0x3e4b9f98	0.19885099
181	0xbd7ac82d	-0.06122606
182	0xbabc7fdd	-0.0014381368
183	0x3dae05d6	0.08497207
184	0x3e073c79	0.13206662
185	0x3e5eb995	0.21750481
186	0xbbf66a80	-0.00752002
187	0xbd1a260a	-0.037633933
188	0x3e10c1e7	0.14136468
189	0x3d7cf2aa	0.06175486
190	0x3de5d60b	0.11222466
191	0xbd359724	-0.044333592
192	0xbd90dfc4	-0.0707393
193	0x3dfb08a1	0.12257505
194	0xbe8d66ed	-0.2761759
195	0x3e5c0b3e	0.21488664
196	0xbeb23e11	-0.34812978
197	0xbd2e7440	-0.042591333
198	0xbe2102d9	-0.15723743
199	0xbdce6755	-0.10078303
200	0x3baebef5	0.0053328224
201	0x3d180eab	0.037123363
202	0xbdcfade7	-0.10140591
203	0xbf55a5b2	-0.83455956
204	0xbe095351	-0.13410689
205	0xbd87aa2f	-0.06624257
206	0x3d651479	0.055927727
207	0x3d6905dd	0.056890357
208	0xbd4a6f26	-0.049422406
209	0xbc96c24b	-0.018403193
210	0xbd31ab66	-0.04337635
211	0xbd772623	-0.060339104
212	0x3cd34751	0.025790842
213	0xbe4ae59f	-0.19814156
214	0xbe751e0b	-0.23937242
215	0xbd0b821f	-0.03405964
216	0x3d38e7cd	0.045142937
217	0x3d9e5407	0.07730871
218	0xbd6f8957	-0.058480587
219	0x3c1562f7	0.009117833
220	0xbf1786b7	-0.59189934
221	0x3da78a8d	0.08180723
222	0xbedc3087	-0.43005773
223	0x3e1308e4	0.1435886
224	0xbdec4ac8	-0.11537701
225	0xbcea8209	-0.028626459
226	0x3ab20d04	0.0013584201
227	0xbdb8acce	-0.09017335
228	0xbe9259c7	-0.2858412
229	0x3f45a39d	0.7720278
230	0x3e006750	0.1253941
231	0xbe37e281	-0.17957498
232	0x3d61dcda	0.05514226
233	0xbdf2a107	-0.1184712
234	0xbd8259c5	-0.063647784
235	0xbd644ac1	-0.055735353
236	0x3db638a3	0.08897521
237	0xbdabb3d7	-0.08383911
238	0xbda8e8e9	-0.08247549
239	0x3d182d02	0.037152298
240	0xbf1aafc1	-0.6042443
241	0x3d905af2	0.070485964
242	0xbf01fc94	-0.5077603
243	0x3c11f189	0.008907684
244	0xbe048700	-0.12942123
245	0xbbd2e837	-0.0064363736
246	0xbbd6cb5b	-0.0065550036
247	0x3e160736	0.14651188
248	0xbca0b567	-0.01961775
249	0x3a177cdd	0.0005778799
250	0x3e995bb9	0.2995279
251	0xbcd13fb0	-0.025543064
252	0xbd979cfa	-0.07402988
253	0x3d2a1cee	0.041531496
254	0x3d8fdfe3	0.07025125
255	0x3e0ba416	0.13636813

tran_cnn_layer1.0.bias f4 [32]
0	0x3d408593	0.047002386
1	0xbcadb8f8	-0.021206364
2	0x3d5b2f16	0.0535117
3	0xbdca5459	-0.09879369
4	0x3d9b8a49	0.07594735
5	0x3d455c60	0.0481838
6	0xbde0c173	-0.109743975
7	0xbd838df4	-0.0642356
8	0x3e80fd57	0.25193283
9	0xbc8077d4	-0.015682139
10	0xbaf00f15	-0.0018315042
11	0xbbce6337	-0.0062984484
12	0x3b165f1d	0.0022944876
13	0xbd03d0c3	-0.032181513
14	0x3c8e7be8	0.017393067
15	0x3df4604b	0.11932429
16	0x3e2611a4	0.16217667
17	0x3d0d175b	0.0344461
18	0xbd510da2	-0.051038392
19	0x3dba7e60	0.09106135
20	0x3d0a73ee	0.033801965
21	0x3d997222	0.07492472
22	0xbd03e791	-0.03220326
23	0xbd2e8681	-0.04260874
24	0xbc7d37ed	-0.015455228
25	0x3e86504f	0.26233146
26	0xbe27b872	-0.16378954
27	0x3e1a6e36	0.15081105
28	0x3ea2286c	0.31671464
29	0x3c1567d3	0.009118992
30	0xbd0256a0	-0.031820893
31	0x3a5befc8	0.0008389917

tran_cnn_layer2.0.weight f4 [32, 16, 2, 2]
0	0x3e83dd78	0.25754905
1	0x3e87c071	0.2651401
2	0x3e2bac47	0.16764937
3	0x3e59576c	0.21224755
4	0x3c9118f2	0.01771209
5	0x3e00b55e	0.12569186
6	0x3dd03f41	0.10168315
7	0x3e65bd0f	0.22435401
8	0xbe2530d4	-0.16131908
9	0x3e2c62f2	0.1683462
10	0x3e2abae0	0.1667285
11	0x3e4e3dad	0.20140715
12	0x3c3cdd39	0.011527353
13	0x3d829ce6	0.06377582
14	0x3d116d66	0.03550472
15	0x3d26c598	0.040715784
16	0xbe017c1f	-0.12645005
17	0x3f28605f	0.6577205
18	0x3e73251f	0.2374463
19	0x3d1b086d	0.037849832
20	0xbd856540	-0.065134525
21	0x3e154f92	0.14581135
22	0x3e2204d6	0.15822157
23	0x3d2c392b	0.042046707
24	0xbeaf5868	-0.34247136
25	0x3d9d7627	0.076885514
26	0xbde39aba	-0.11113496
27	0xbd920544	-0.071299106
28	0xbdb6c431	-0.08924139
29	0x3ca3bfb6	0.019988876
30	0xbdf0784e	-0.11741696
31	0x3dc2917f	0.095004074
32	0x3e347e3e	0.17626283
33	0x3deeb9bc	0.1165652
34	0x3e4e9bbd	0.20176597
35	0x3e86db69	0.26339272
36	0xbc46f80e	-0.012144102
37	0xbf4cb996	-0.7997068
38	0x3d38b625	0.04509558
39	0x3d7914f3	0.060810994
40	0xbdcfcb3f	-0.10146188
41	0xbdbeab44	-0.0931001
42	0xbb31176c	-0.0027022017
43	0x3d286c9e	0.04111921
44	0x3d3749e6	0.04474821
45	0xbc939fe5	-0.01802058
46	0x3e1c4c4b	0.15263478
47	0x3e125ca8	0.14293158
48	0x3d85061b	0.06495305
49	0x3d59438f	0.053042945
50	0x3e19a95a	0.15006009
51	0x3dc80602	0.09766771
52	0xbe72dd45	-0.2371722
53	0x3e35bf40	0.17748737
54	0xbe80b1e2	-0.25135714
55	0xbc03e407	-0.008049971
56	0xbeb82c77	-0.35971424
57	0x3e49a59a	0.19692078
58	0x3e166053	0.14685182
59	0x3e73ed36	0.23820958
60	0xbf0697f5	-0.5257562
61	0x3dcd77bc	0.10032603
62	0xbcdc9b83	-0.026929623
63	0x3d970334	0.07373658
64	0xbe945fd1	-0.28979352
65	0xbe974e1e	-0.29551786
66	0xbebcdd56	-0.36887616
67	0xbe981eba	-0.29710943
68	0xbcea375e	-0.028590854
69	0x3a6df581	0.00090774155
70	0x3d6a8392	0.05725438
71	0x3da7a612	0.08185972
72	0xbe01c799	-0.12673797
73	0xbf42ff44	-0.76170754
74	0x3e897a29	0.26851013
75	0x3f2eee42	0.683323
76	0x3d48e1b9	0.04904339
77	0x3dda27df	0.10652136
78	0x3dc4c317	0.09607523
79	0x3dfa2082	0.122132316
80	0xbdced5d6	-0.1009938
81	0x3eccf2a2	0.40028864
82	0xbe53d864	-0.20688015
83	0x3e7a3da3	0.24437575
84	0x3c3c04b0	0.011475727
85	0x3dc5eab2	0.09663905
86	0x3db0b7a5	0.086287774
87	0x3d472dee	0.048627786
88	0x3e77b34f	0.24189495
89	0xbdb951c7	-0.09048801
90	0x3dafeb43	0.085897945
91	0x3dffe719	0.1249525
92	0x3e0d78f6	0.13815674
93	0x3dafa9ba	0.08577295
94	0xbc88308f	-0.016624717
95	0x3add81a6	0.00168996
96	0xbdea10ce	-0.114289865
97	0xbdef9fc7	-0.11700397
98	0xbd8bcb58	-0.06825894
99	0xbd551fbe	-0.052032225
100	0x3c8ae6f0	0.016955823
101	0x3dffa049	0.12481744
102	0x3df2a5f1	0.11848057
103	0x3db9c3ad	0.09070525
104	0xbdcb64da	-0.09931345
105	0xbdd73b18	-0.10509318
106	0x3cd39aa7	0.02583058
107	0xbc2e2f6f	-0.010631426
108	0xbd72e1b3	-0.059297275
109	0xbddccc54	-0.1078116
110	0xbc763b28	-0.015028752
111	0x3df4cb27	0.11952811
112	0x3c891128	0.016731814
113	0x3d15be5c	0.036558494
114	0x3dfc5f93	0.12322917
115	0x3d940d50	0.07229102
116	0x3efa1acb	0.48848566
117	0x3f05e403	0.52301043
118	0x3e198d7e	0.14995381
119	0x3de4e1f2	0.11175908
120	0xbd99936a	-0.0749882
121	0x3e3e368a	0.18575493
122	0x3e59d085	0.2127095
123	0x3f0c446e	0.54791915
124	0xbf4e5966	-0.8060516
125	0x3dc69f4b	0.096983515
126	0x3d93b8e0	0.072129965
127	0xbd117643	-0.035513174
128	0x3ea3fa54	0.32026923
129	0x3dcc12cf	0.09964525
130	0x3ed3f82a	0.41400272
131	0x3dd76146	0.105166
132	0xbe3ccd69	-0.18437733
133	0x3e469e9c	0.19396442
134	0xbf0026f2	-0.50059426
135	0x3f04b65a	0.51840746
136	0xbdc4a487	-0.096016936
137	0xbdc66941	-0.09688044
138	0x3eae190d	0.34003487
139	0xbbec82cf	-0.007217742
140	0xbde8fc97	-0.11376303
141	0xbdb0305f	-0.08602976
142	0xbd0b3ed4	-0.033995464
143	0xb9d9de2b	-0.00041554993
144	0x3c156884	0.009119157
145	0x3f115865	0.56775504
146	0x3e30347c	0.17207521
147	0x3f0cc7f7	0.5499262
148	0x3cef9568	0.029246047
149	0xbeb806a6	-0.35942572
150	0xbf85a9aa	-1.0442402
151	0x3f14a1e5	0.5805953
152	0x3e23df06	0.16003045
153	0xbc8d55bd	-0.017252797
154	0xbcb637d8	-0.022243425
155	0xbd79fd06	-0.061032318
156	0xbd0e989c	-0.03481351
157	0xbe1eed75	-0.1552027
158	0xbe646e30	-0.22307658
159	0xbdd424ef	-0.10358607
160	0xbc27b1c4	-0.010235254
161	0x3e711e35	0.2354668
162	0xbf5407b7	-0.8282427
163	0x3df98c74	0.121849924
164	0x3d585082	0.052811153
165	0x3f0350f5	0.51295406
166	0xbd53b4d7	-0.051686134
167	0xbe19c6ff	-0.15017317
168	0xbd44cbd6	-0.048045956
169	0x3dfb7fc3	0.12280228
170	0xbef7c501	-0.4839249
171	0x3e9027c4	0.2815534
172	0xbeafb459	-0.34317282
173	0xbcc7f821	-0.02441031
174	0xbe4755e1	-0.19466354
175	0x3e2ecb3f	0.1706972
176	0xbea877b7	-0.32903835
177	0xbd0063bf	-0.031345125
178	0xbf39c362	-0.72563756
179	0xbe9b2f68	-0.30309606
180	0x3cf12fff	0.029441832
181	0xbd20e5bd	-0.039281595
182	0xbdbdf790	-0.092757344
183	0x3da93737	0.082624845
184	0xbe29b354	-0.16572315
185	0x3d8ae4e9	0.067819424
186	0x3e3f68cf	0.18692325
187	0x3c862d15	0.016378919
188	0x3e52fca6	0.2060419
189	0x3c86c3a3	0.016450709
190	0xbe770387	-0.2412244
191	0x3c93b30b	0.01802971
192	0xbd94e054	-0.0726935
193	0xbd0d7228	-0.034532696
194	0xbe0941d2	-0.13404015
195	0xbd8b44a2	-0.068002
196	0xbd28dafc	-0.041224465
197	0xbdcd6104	-0.1002827
198	0x3d9c98dd	0.07646344
199	0x3d7d2462	0.061802275
200	0x3d6937ac	0.05693786
201	0x3dddc8f4	0.108293444
202	0x3d35eb4b	0.044413846
203	0x3f19042f	0.5977201
204	0x3dae36fd	0.08506582
205	0x3e997dd3	0.2997881
206	0x3cb5b057	0.022178812
207	0x3e00f99b	0.12595217
208	0xbe0aa466	-0.13539276
209	0xbde1e7bf	-0.1103053
210	0xc0830c88	-4.0952797
211	0x3da3030b	0.07959565
212	0x3c814a08	0.015782371
213	0x3ede1c6c	0.4338106
214	0x3d6dae8e	0.058027796
215	0xbe4d1f6e	-0.2003152
216	0x3d4b50af	0.049637493
217	0xbd64fbeb	-0.05590431
218	0xbcb8a603	-0.022540098
219	0x3e5dcd4b	0.21660344
220	0x3d87f36f	0.06638228
221	0x3ce3ca6c	0.027806483
222	0x3e7682f8	0.24073398
223	0x3e46c951	0.19412734
224	0xbd219384	-0.039447322
225	0xbda0c359	-0.078497596
226	0x3db725ba	0.08942743
227	0x3e338b6c	0.17533654
228	0xbe68f873	-0.22751026
229	0xbf4bc1cb	-0.7959258
230	0x3bd90deb	0.0066239736
231	0xbe15ab3a	-0.14616099
232	0xbdc3e573	-0.09565248
233	0xbe178643	-0.1479731
234	0x3e6d79b4	0.23190957
235	0x3d9eedc3	0.07760193
236	0x3d15c7b3	0.0365674
237	0x3cc4b079	0.02400993
238	0x3e27189a	0.16317979
239	0x3e11f68e	0.1425421
240	0x3de45ace	0.11150132
241	0x3e87191a	0.26386338
242	0x3e32619c	0.17420048
243	0x3ecc20b4	0.398687
244	0x3e4cbb42	0.19993308
245	0x3f3bd9fb	0.73379487
246	0x3e30c87f	0.17263983
247	0x3e80f81a	0.25189286
248	0xbdd67e96	-0.10473363
249	0x3ca63686	0.02028967
250	0xbd38d4af	-0.045124706
251	0x3ed932ca	0.4242156
252	0xbf0ce555	-0.5503743
253	0xbd1c22d5	-0.038119156
254	0xbc996ac5	-0.01872767
255	0x3d665250	0.056230843

tran_cnn_layer2.0.bias f4 [16]
0	0x3d642f4e	0.055709176
1	0xbd5d1ccf	-0.053982552
2	0xbe628528	-0.22121108
3	0xbd9724f5	-0.07380096
4	0xbdacc6bd	-0.08436344
5	0xbd8ecc56	-0.06972568
6	0x3d06956a	0.032857336
7	0xbd436a55	-0.047708828
8	0x3a31e106	0.0006785545
9	0x3db75779	0.08952231
10	0x3b6b784e	0.0035929861
11	0xbd921544	-0.07132962
12	0x3d69f344	0.05711676
13	0xbc1631bf	-0.009167134
14	0xbdef180e	-0.1167451
15	0xbde277df	-0.1105802

tran_cnn_layer3.0.weight f4 [16, 3, 2, 2]
0	0xbec69ef1	-0.38793138
1	0xbebfa2b4	-0.3742882
2	0xbec4c959	-0.38434866
3	0xbec46d44	-0.38364613
4	0x3e64019f	0.22266243
5	0x3e5bc245	0.21460827
6	0x3e691ee7	0.22765695
7	0x3e5af989	0.21384253
8	0x3c9facec	0.019491635
9	0x3cab6050	0.020919949
10	0x3cc25782	0.023723368
11	0x3c9e38ad	0.019314134
12	0xbd99cfca	-0.07510336
13	0xbd097db2	-0.033567138
14	0x3e32899f	0.17435311
15	0x3ece709e	0.40320295
16	0xbdd351fc	-0.10318372
17	0x3de96e48	0.113979876
18	0x3ceca95e	0.028889354
19	0x3eb7a50c	0.35868108
20	0xbe145345	-0.1448489
21	0xbd200659	-0.039068554
22	0x3dd28ea5	0.102811135
23	0x3e8b2a8e	0.27180904
24	0x3f18790e	0.59559715
25	0x3e07191e	0.13193175
26	0xbe4ac613	-0.19802122
27	0xbf32eee2	-0.69895756
28	0x3ebdcdff	0.37071225
29	0x3d786425	0.06064238
30	0xbe1150af	-0.14190935
31	0xbef9db7d	-0.4880027
32	0x3ef70b16	0.48250645
33	0x3df2730e	0.11838351
34	0xbe3d48c4	-0.18484789
35	0xbf133d57	-0.5751547
36	0x3e9983a3	0.29983243
37	0x3dd96afb	0.10616108
38	0x3eb5d499	0.35513762
39	0x3e4845d3	0.19557886
40	0x3e91ace7	0.28452227
41	0x3e0765ec	0.13222474
42	0x3e9fde7f	0.3122444
43	0x3e3248c9	0.17410578
44	0xbe4c5e54	-0.19957858
45	0xbea51410	-0.3224187
46	0xbe114888	-0.14187825
47	0xbe83a301	-0.257103
48	0xbba354a6	-0.004984456
49	0x3ec95c4e	0.39328235
50	0xbeb8c53c	-0.36087978
51	0x3e0034a0	0.12520075
52	0xbc9418b2	-0.018078182
53	0x3e94183a	0.28924733
54	0xbe7ca2e6	-0.24671516
55	0x3dc6b45b	0.09702369
56	0xbd6d35fe	-0.05791282
57	0x3ea48e56	0.32139844
58	0xbebae322	-0.36501414
59	0x3d49cd61	0.04926813
60	0x3eb3cbac	0.35116327
61	0xbee358b4	-0.44403613
62	0x3edd8ae8	0.4327004
63	0xbeed0c66	-0.46298522
64	0x3edb0d78	0.42783713
65	0xbe9f0d41	-0.310648
66	0x3f00c1a4	0.5029547
67	0xbe937190	-0.2879758
68	0x3ec24168	0.37940526
69	0xbeb16056	-0.3464381
70	0x3ee1d8c1	0.44110683
71	0xbeac7abc	-0.3368739
72	0x3dc9aacb	0.09847029
73	0xbe7f85fc	-0.24953455
74	0x3ec50967	0.38483736
75	0xbcec987f	-0.02888131
76	0xbd0781ed	-0.03308289
77	0xbe9a5451	-0.30142453
78	0x3e1a5bbd	0.15074058
79	0xbe16dd21	-0.14732791
80	0x3e0687b0	0.13137698
81	0xbe33e2c5	-0.17566974
82	0x3ec2745b	0.37979397
83	0x3d39aaca	0.045328893
84	0x3e07f6a0	0.13277674
85	0x3e726011	0.23669459
86	0x3dc87b8e	0.09789191
87	0x3e32368e	0.17403623
88	0x3e5108c2	0.20413497
89	0x3e802b05	0.2503282
90	0x3e3cce0f	0.1843798
91	0x3e5c5f0b	0.21520631
92	0xbea38d54	-0.31943762
93	0xbe7a3d1e	-0.24437377
94	0xbeb4f0b0	-0.3533988
95	0xbe935640	-0.2877674
96	0x3ef1d450	0.47232294
97	0x3e8426f8	0.2581098
98	0x3e8f9777	0.28045246
99	0x3e06a100	0.13147354
100	0x3df3c060	0.11901927
101	0x3ca38b85	0.019963989
102	0xbc00ea85	-0.007868414
103	0xbd76dd65	-0.060269732
104	0x3e4ad184	0.19806486
105	0xbd1221bb	-0.0356767
106	0x3c37cc27	0.011218107
107	0xbe3b8410	-0.18312097
108	0x3e9a8655	0.30180612
109	0xbe097fc2	-0.13427642
110	0x3edfadfc	0.43687427
111	0xbd5e3379	-0.054248307
112	0x3ea99f6f	0.3312945
113	0xbdb39902	-0.08769418
114	0x3eed3085	0.4632608
115	0x3c4a1204	0.012333397
116	0x3ea7027b	0.3261908
117	0xbd44d3ae	-0.048053436
118	0x3ee13c64	0.43991387
119	0x3d1cc9f5	0.03827854
120	0xbdb681ed	-0.089115
121	0x3e5cfaa2	0.21579984
122	0xbd904c2d	-0.070457794
123	0x3dd9aaaa	0.10628255
124	0xbdc906f1	-0.09815777
125	0x3c89a738	0.016803369
126	0xbd916f4e	-0.07101308
127	0xbd2d1243	-0.042253744
128	0x3e06fb36	0.13181767
129	0x3ed7b1e5	0.4212791
130	0x3e1b4ad6	0.15165266
131	0x3ec51148	0.38489747
132	0xbe0a2c0b	-0.13493364
133	0xbdd6ffb6	-0.10497992
134	0x3e651cfd	0.2237434
135	0xbe332288	-0.17493641
136	0x3e39484b	0.18093984
137	0xbcd37acb	-0.025815388
138	0x3ee7df68	0.45287633
139	0x3c92dfbb	0.017928949
140	0x3e03cf14	0.12871963
141	0xbc2779a9	-0.010221877
142	0x3ed0af53	0.40758762
143	0x3ddd2201	0.10797501
144	0x3e229277	0.15876184
145	0xbea7dc0a	-0.32785064
146	0x3e4729fa	0.19449607
147	0xbe8c198f	-0.2736325
148	0x3e35a476	0.17738518
149	0xbe600667	-0.21877442
150	0x3e494bde	0.19657847
151	0xbe4495c0	-0.1919775
152	0x3ee6ebf2	0.45101887
153	0x3d4f4345	0.050601263
154	0x3ef8b34c	0.48574293
155	0x3db50296	0.08838384
156	0xbea15aa0	-0.31514454
157	0xbe9e9aed	-0.30977574
158	0xbea598d1	-0.32343152
159	0xbe9e7add	-0.30953112
160	0xbe969237	-0.29408428
161	0xbe8d0d3b	-0.27549157
162	0xbe99ee03	-0.300644
163	0xbe8dc821	-0.2769175
164	0xbe7a0dba	-0.24419299
165	0xbe745013	-0.23858671
166	0xbe80edf3	-0.2518154
167	0xbe76948d	-0.24080105
168	0xbf7e25aa	-0.9927622
169	0xbed6582f	-0.41864154
170	0x3d2b8436	0.041874133
171	0x3f2c796f	0.6737279
172	0xbf3a1374	-0.72685933
173	0xbea7d545	-0.327799
174	0xbd769efe	-0.06021022
175	0x3ec8888f	0.39166686
176	0xbf549eb2	-0.8305465
177	0xbebcf4d3	-0.36905536
178	0x3d239b90	0.039943278
179	0x3f0a9325	0.54130775
180	0xbdb6e0f1	-0.08929623
181	0x3ecd06e3	0.40044317
182	0xbe27615e	-0.16345736
183	0x3ddb171d	0.10697768
184	0x3e1be013	0.15222196
185	0x3ebc30af	0.36755893
186	0x3e08dd76	0.1336573
187	0x3e64b1ea	0.22333494
188	0xbdc168b8	-0.09443802
189	0x3e79fe2f	0.2441337
190	0xbe3695e6	-0.17830619
191	0x3da23523	0.07920291

tran_cnn_layer3.0.bias f4 [3]
0	0x3d278347	0.04089668
1	0xbe3d3a10	-0.1847918
2	0xbd814c02	-0.063133255
